…
 'bucketing_sampler': True, 'num_buckets': 6, 'concatenate_cuts': False, 'duration_factor': 1.0, 'gap': 0.1, 'on_the_fly_feats': False, 'shuffle': True, 'drop_last': False, 'return_cuts': True, 'num_workers': 8, 'enable_spec_aug': False, 'spec_aug_time_warp_factor': 80, 'input_strategy': 'PrecomputedFeatures', 'dataset': 'libritts', 'text_tokens': 'data/tokenized/unique_text_tokens.k2symbols', 'sampling_rate': 24000}
2023-08-21 15:16:05,440 INFO [trainer.py:906] About to create model
VALLE(
  (ar_text_embedding): TokenEmbedding(
    (dropout): Dropout(p=0.0, inplace=False)
    (word_embeddings): Embedding(512, 1024)
  )
  (nar_text_embedding): TokenEmbedding(
    (dropout): Dropout(p=0.0, inplace=False)
    (word_embeddings): Embedding(512, 1024)
  )
  (ar_audio_embedding): TokenEmbedding(
    (dropout): Dropout(p=0.0, inplace=False)
    (word_embeddings): Embedding(1025, 1024)
  )
  (ar_text_prenet): Identity()
  (ar_audio_prenet): Identity()
  (ar_text_position): SinePositionalEmbedding(
    (dropout): Dropout(p=0.1, inplace=False)
  )
  (ar_audio_position): SinePositionalEmbedding(
    (dropout): Dropout(p=0.1, inplace=False)
  )
  (ar_decoder): TransformerEncoder(
    (layers): ModuleList(
      (0): TransformerEncoderLayer(
        (self_attn): MultiheadAttention(
          (out_proj): NonDynamicallyQuantizableLinear(in_features=1024, out_features=1024, bias=True)
        )
        (linear1): Linear(in_features=1024, out_features=4096, bias=True)
        (dropout): Dropout(p=0.1, inplace=False)
        (linear2): Linear(in_features=4096, out_features=1024, bias=True)
        (dropout1): Dropout(p=0.1, inplace=False)
        (dropout2): Dropout(p=0.1, inplace=False)
        (norm1): LayerNorm((1024,), eps=1e-05, elementwise_affine=True)
        (norm2): LayerNorm((1024,), eps=1e-05, elementwise_affine=True)
      )
      (1): TransformerEncoderLayer(
        (self_attn): MultiheadAttention(
          (out_proj): NonDynamicallyQuantizableLinear(in_features=1024, out_features=1024, bias=True)
        )
        (linear1): Linear(in_features=1024, out_features=4096, bias=True)
        (dropout): Dropout(p=0.1, inplace=False)
        (linear2): Linear(in_features=4096, out_features=1024, bias=True)
        (dropout1): Dropout(p=0.1, inplace=False)
        (dropout2): Dropout(p=0.1, inplace=False)
        (norm1): LayerNorm((1024,), eps=1e-05, elementwise_affine=True)
        (norm2): LayerNorm((1024,), eps=1e-05, elementwise_affine=True)
      )
      (2): TransformerEncoderLayer(
        (self_attn): MultiheadAttention(
          (out_proj): NonDynamicallyQuantizableLinear(in_features=1024, out_features=1024, bias=True)
        )
        (linear1): Linear(in_features=1024, out_features=4096, bias=True)
        (dropout): Dropout(p=0.1, inplace=False)
        (linear2): Linear(in_features=4096, out_features=1024, bias=True)
        (dropout1): Dropout(p=0.1, inplace=False)
        (dropout2): Dropout(p=0.1, inplace=False)
        (norm1): LayerNorm((1024,), eps=1e-05, elementwise_affine=True)
        (norm2): LayerNorm((1024,), eps=1e-05, elementwise_affine=True)
      )
      (3): TransformerEncoderLayer(
        (self_attn): MultiheadAttention(
          (out_proj): NonDynamicallyQuantizableLinear(in_features=1024, out_features=1024, bias=True)
        )
        (linear1): Linear(in_features=1024, out_features=4096, bias=True)
        (dropout): Dropout(p=0.1, inplace=False)
        (linear2): Linear(in_features=4096, out_features=1024, bias=True)
        (dropout1): Dropout(p=0.1, inplace=False)
        (dropout2): Dropout(p=0.1, inplace=False)
        (norm1): LayerNorm((1024,), eps=1e-05, elementwise_affine=True)
        (norm2): LayerNorm((1024,), eps=1e-05, elementwise_affine=True)
      )
      (4): TransformerEncoderLayer(
        (self_attn): MultiheadAttention(
          (out_proj): NonDynamicallyQuantizableLinear(in_features=1024, out_features=1024, bias=True)
        )
        (linear1): Linear(in_features=1024, out_features=4096, bias=True)
        (dropout): Dropout(p=0.1, inplace=False)
        (linear2): Linear(in_features=4096, out_features=1024, bias=True)
        (dropout1): Dropout(p=0.1, inplace=False)
        (dropout2): Dropout(p=0.1, inplace=False)
        (norm1): LayerNorm((1024,), eps=1e-05, elementwise_affine=True)
        (norm2): LayerNorm((1024,), eps=1e-05, elementwise_affine=True)
      )
      (5): TransformerEncoderLayer(
        (self_attn): MultiheadAttention(
          (out_proj): NonDynamicallyQuantizableLinear(in_features=1024, out_features=1024, bias=True)
        )
        (linear1): Linear(in_features=1024, out_features=4096, bias=True)
        (dropout): Dropout(p=0.1, inplace=False)
        (linear2): Linear(in_features=4096, out_features=1024, bias=True)
        (dropout1): Dropout(p=0.1, inplace=False)
        (dropout2): Dropout(p=0.1, inplace=False)
        (norm1): LayerNorm((1024,), eps=1e-05, elementwise_affine=True)
        (norm2): LayerNorm((1024,), eps=1e-05, elementwise_affine=True)
      )
      (6): TransformerEncoderLayer(
        (self_attn): MultiheadAttention(
          (out_proj): NonDynamicallyQuantizableLinear(in_features=1024, out_features=1024, bias=True)
        )
        (linear1): Linear(in_features=1024, out_features=4096, bias=True)
        (dropout): Dropout(p=0.1, inplace=False)
        (linear2): Linear(in_features=4096, out_features=1024, bias=True)
        (dropout1): Dropout(p=0.1, inplace=False)
        (dropout2): Dropout(p=0.1, inplace=False)
        (norm1): LayerNorm((1024,), eps=1e-05, elementwise_affine=True)
        (norm2): LayerNorm((1024,), eps=1e-05, elementwise_affine=True)
      )
      (7): TransformerEncoderLayer(
        (self_attn): MultiheadAttention(
          (out_proj): NonDynamicallyQuantizableLinear(in_features=1024, out_features=1024, bias=True)
        )
        (linear1): Linear(in_features=1024, out_features=4096, bias=True)
        (dropout): Dropout(p=0.1, inplace=False)
        (linear2): Linear(in_features=4096, out_features=1024, bias=True)
        (dropout1): Dropout(p=0.1, inplace=False)
        (dropout2): Dropout(p=0.1, inplace=False)
        (norm1): LayerNorm((1024,), eps=1e-05, elementwise_affine=True)
        (norm2): LayerNorm((1024,), eps=1e-05, elementwise_affine=True)
      )
      (8): TransformerEncoderLayer(
        (self_attn): MultiheadAttention(
          (out_proj): NonDynamicallyQuantizableLinear(in_features=1024, out_features=1024, bias=True)
        )
        (linear1): Linear(in_features=1024, out_features=4096, bias=True)
        (dropout): Dropout(p=0.1, inplace=False)
        (linear2): Linear(in_features=4096, out_features=1024, bias=True)
        (dropout1): Dropout(p=0.1, inplace=False)
        (dropout2): Dropout(p=0.1, inplace=False)
        (norm1): LayerNorm((1024,), eps=1e-05, elementwise_affine=True)
        (norm2): LayerNorm((1024,), eps=1e-05, elementwise_affine=True)
      )
      (9): TransformerEncoderLayer(
        (self_attn): MultiheadAttention(
          (out_proj): NonDynamicallyQuantizableLinear(in_features=1024, out_features=1024, bias=True)
        )
        (linear1): Linear(in_features=1024, out_features=4096, bias=True)
        (dropout): Dropout(p=0.1, inplace=False)
        (linear2): Linear(in_features=4096, out_features=1024, bias=True)
        (dropout1): Dropout(p=0.1, inplace=False)
        (dropout2): Dropout(p=0.1, inplace=False)
        (norm1): LayerNorm((1024,), eps=1e-05, elementwise_affine=True)
        (norm2): LayerNorm((1024,), eps=1e-05, elementwise_affine=True)
      )
      (10): TransformerEncoderLayer(
        (self_attn): MultiheadAttention(
          (out_proj): NonDynamicallyQuantizableLinear(in_features=1024, out_features=1024, bias=True)
        )
        (linear1): Linear(in_features=1024, out_features=4096, bias=True)
        (dropout): Dropout(p=0.1, inplace=False)
        (linear2): Linear(in_features=4096, out_features=1024, bias=True)
        (dropout1): Dropout(p=0.1, inplace=False)
        (dropout2): Dropout(p=0.1, inplace=False)
        (norm1): LayerNorm((1024,), eps=1e-05, elementwise_affine=True)
        (norm2): LayerNorm((1024,), eps=1e-05, elementwise_affine=True)
      )
      (11): TransformerEncoderLayer(
        (self_attn): MultiheadAttention(
          (out_proj): NonDynamicallyQuantizableLinear(in_features=1024, out_features=1024, bias=True)
        )
        (linear1): Linear(in_features=1024, out_features=4096, bias=True)
        (dropout): Dropout(p=0.1, inplace=False)
        (linear2): Linear(in_features=4096, out_features=1024, bias=True)
        (dropout1): Dropout(p=0.1, inplace=False)
        (dropout2): Dropout(p=0.1, inplace=False)
        (norm1): LayerNorm((1024,), eps=1e-05, elementwise_affine=True)
        (norm2): LayerNorm((1024,), eps=1e-05, elementwise_affine=True)
      )
    )
    (norm): LayerNorm((1024,), eps=1e-05, elementwise_affine=True)
  )
  (ar_predict_layer): Linear(in_features=1024, out_features=1025, bias=False)
  (ar_accuracy_metric): MulticlassAccuracy()
  (nar_audio_embeddings): ModuleList(
    (0): TokenEmbedding(
      (dropout): Dropout(p=0.0, inplace=False)
      (word_embeddings): Embedding(1025, 1024)
    )
    (1): TokenEmbedding(
      (dropout): Dropout(p=0.0, inplace=False)
      (word_embeddings): Embedding(1024, 1024)
    )
    (2): TokenEmbedding(
      (dropout): Dropout(p=0.0, inplace=False)
      (word_embeddings): Embedding(1024, 1024)
    )
    (3): TokenEmbedding(
      (dropout): Dropout(p=0.0, inplace=False)
      (word_embeddings): Embedding(1024, 1024)
    )
    (4): TokenEmbedding(
      (dropout): Dropout(p=0.0, inplace=False)
      (word_embeddings): Embedding(1024, 1024)
    )
    (5): TokenEmbedding(
      (dropout): Dropout(p=0.0, inplace=False)
      (word_embeddings): Embedding(1024, 1024)
    )
    (6): TokenEmbedding(
      (dropout): Dropout(p=0.0, inplace=False)
      (word_embeddings): Embedding(1024, 1024)
    )
    (7): TokenEmbedding(
      (dropout): Dropout(p=0.0, inplace=False)
      (word_embeddings): Embedding(1024, 1024)
    )
  )
  (nar_text_prenet): Identity()
  (nar_audio_prenet): Identity()
  (nar_text_position): SinePositionalEmbedding(
    (dropout): Dropout(p=0.0, inplace=False)
  )
  (nar_audio_position): SinePositionalEmbedding(
    (dropout): Dropout(p=0.1, inplace=False)
  )
  (nar_decoder): TransformerEncoder(
    (layers): ModuleList(
      (0): TransformerEncoderLayer(
        (self_attn): MultiheadAttention(
          (out_proj): NonDynamicallyQuantizableLinear(in_features=1024, out_features=1024, bias=True)
        )
        (linear1): Linear(in_features=1024, out_features=4096, bias=True)
        (dropout): Dropout(p=0.1, inplace=False)
        (linear2): Linear(in_features=4096, out_features=1024, bias=True)
        (dropout1): Dropout(p=0.1, inplace=False)
        (dropout2): Dropout(p=0.1, inplace=False)
        (norm1): AdaptiveLayerNorm(
          (project_layer): Linear(in_features=1024, out_features=2048, bias=True)
          (norm): LayerNorm((1024,), eps=1e-05, elementwise_affine=True)
        )
        (norm2): AdaptiveLayerNorm(
          (project_layer): Linear(in_features=1024, out_features=2048, bias=True)
          (norm): LayerNorm((1024,), eps=1e-05, elementwise_affine=True)
        )
      )
      (1): TransformerEncoderLayer(
        (self_attn): MultiheadAttention(
          (out_proj): NonDynamicallyQuantizableLinear(in_features=1024, out_features=1024, bias=True)
        )
        (linear1): Linear(in_features=1024, out_features=4096, bias=True)
        (dropout): Dropout(p=0.1, inplace=False)
        (linear2): Linear(in_features=4096, out_features=1024, bias=True)
        (dropout1): Dropout(p=0.1, inplace=False)
        (dropout2): Dropout(p=0.1, inplace=False)
        (norm1): AdaptiveLayerNorm(
          (project_layer): Linear(in_features=1024, out_features=2048, bias=True)
          (norm): LayerNorm((1024,), eps=1e-05, elementwise_affine=True)
        )
        (norm2): AdaptiveLayerNorm(
          (project_layer): Linear(in_features=1024, out_features=2048, bias=True)
          (norm): LayerNorm((1024,), eps=1e-05, elementwise_affine=True)
        )
      )
      (2): TransformerEncoderLayer(
        (self_attn): MultiheadAttention(
          (out_proj): NonDynamicallyQuantizableLinear(in_features=1024, out_features=1024, bias=True)
        )
        (linear1): Linear(in_features=1024, out_features=4096, bias=True)
        (dropout): Dropout(p=0.1, inplace=False)
        (linear2): Linear(in_features=4096, out_features=1024, bias=True)
        (dropout1): Dropout(p=0.1, inplace=False)
        (dropout2): Dropout(p=0.1, inplace=False)
        (norm1): AdaptiveLayerNorm(
          (project_layer): Linear(in_features=1024, out_features=2048, bias=True)
          (norm): LayerNorm((1024,), eps=1e-05, elementwise_affine=True)
        )
        (norm2): AdaptiveLayerNorm(
          (project_layer): Linear(in_features=1024, out_features=2048, bias=True)
          (norm): LayerNorm((1024,), eps=1e-05, elementwise_affine=True)
        )
      )
      (3): TransformerEncoderLayer(
        (self_attn): MultiheadAttention(
          (out_proj): NonDynamicallyQuantizableLinear(in_features=1024, out_features=1024, bias=True)
        )
        (linear1): Linear(in_features=1024, out_features=4096, bias=True)
        (dropout): Dropout(p=0.1, inplace=False)
        (linear2): Linear(in_features=4096, out_features=1024, bias=True)
        (dropout1): Dropout(p=0.1, inplace=False)
        (dropout2): Dropout(p=0.1, inplace=False)
        (norm1): AdaptiveLayerNorm(
          (project_layer): Linear(in_features=1024, out_features=2048, bias=True)
          (norm): LayerNorm((1024,), eps=1e-05, elementwise_affine=True)
        )
        (norm2): AdaptiveLayerNorm(
          (project_layer): Linear(in_features=1024, out_features=2048, bias=True)
          (norm): LayerNorm((1024,), eps=1e-05, elementwise_affine=True)
        )
      )
      (4): TransformerEncoderLayer(
        (self_attn): MultiheadAttention(
          (out_proj): NonDynamicallyQuantizableLinear(in_features=1024, out_features=1024, bias=True)
        )
        (linear1): Linear(in_features=1024, out_features=4096, bias=True)
        (dropout): Dropout(p=0.1, inplace=False)
        (linear2): Linear(in_features=4096, out_features=1024, bias=True)
        (dropout1): Dropout(p=0.1, inplace=False)
        (dropout2): Dropout(p=0.1, inplace=False)
        (norm1): AdaptiveLayerNorm(
          (project_layer): Linear(in_features=1024, out_features=2048, bias=True)
          (norm): LayerNorm((1024,), eps=1e-05, elementwise_affine=True)
        )
        (norm2): AdaptiveLayerNorm(
          (project_layer): Linear(in_features=1024, out_features=2048, bias=True)
          (norm): LayerNorm((1024,), eps=1e-05, elementwise_affine=True)
        )
      )
      (5): TransformerEncoderLayer(
        (self_attn): MultiheadAttention(
          (out_proj): NonDynamicallyQuantizableLinear(in_features=1024, out_features=1024, bias=True)
        )
        (linear1): Linear(in_features=1024, out_features=4096, bias=True)
        (dropout): Dropout(p=0.1, inplace=False)
        (linear2): Linear(in_features=4096, out_features=1024, bias=True)
        (dropout1): Dropout(p=0.1, inplace=False)
        (dropout2): Dropout(p=0.1, inplace=False)
        (norm1): AdaptiveLayerNorm(
          (project_layer): Linear(in_features=1024, out_features=2048, bias=True)
          (norm): LayerNorm((1024,), eps=1e-05, elementwise_affine=True)
        )
        (norm2): AdaptiveLayerNorm(
          (project_layer): Linear(in_features=1024, out_features=2048, bias=True)
          (norm): LayerNorm((1024,), eps=1e-05, elementwise_affine=True)
        )
      )
      (6): TransformerEncoderLayer(
        (self_attn): MultiheadAttention(
          (out_proj): NonDynamicallyQuantizableLinear(in_features=1024, out_features=1024, bias=True)
        )
        (linear1): Linear(in_features=1024, out_features=4096, bias=True)
        (dropout): Dropout(p=0.1, inplace=False)
        (linear2): Linear(in_features=4096, out_features=1024, bias=True)
        (dropout1): Dropout(p=0.1, inplace=False)
        (dropout2): Dropout(p=0.1, inplace=False)
        (norm1): AdaptiveLayerNorm(
          (project_layer): Linear(in_features=1024, out_features=2048, bias=True)
          (norm): LayerNorm((1024,), eps=1e-05, elementwise_affine=True)
        )
        (norm2): AdaptiveLayerNorm(
          (project_layer): Linear(in_features=1024, out_features=2048, bias=True)
          (norm): LayerNorm((1024,), eps=1e-05, elementwise_affine=True)
        )
      )
      (7): TransformerEncoderLayer(
        (self_attn): MultiheadAttention(
          (out_proj): NonDynamicallyQuantizableLinear(in_features=1024, out_features=1024, bias=True)
        )
        (linear1): Linear(in_features=1024, out_features=4096, bias=True)
        (dropout): Dropout(p=0.1, inplace=False)
        (linear2): Linear(in_features=4096, out_features=1024, bias=True)
        (dropout1): Dropout(p=0.1, inplace=False)
        (dropout2): Dropout(p=0.1, inplace=False)
        (norm1): AdaptiveLayerNorm(
          (project_layer): Linear(in_features=1024, out_features=2048, bias=True)
          (norm): LayerNorm((1024,), eps=1e-05, elementwise_affine=True)
        )
        (norm2): AdaptiveLayerNorm(
          (project_layer): Linear(in_features=1024, out_features=2048, bias=True)
          (norm): LayerNorm((1024,), eps=1e-05, elementwise_affine=True)
        )
      )
      (8): TransformerEncoderLayer(
        (self_attn): MultiheadAttention(
          (out_proj): NonDynamicallyQuantizableLinear(in_features=1024, out_features=1024, bias=True)
        )
        (linear1): Linear(in_features=1024, out_features=4096, bias=True)
        (dropout): Dropout(p=0.1, inplace=False)
        (linear2): Linear(in_features=4096, out_features=1024, bias=True)
        (dropout1): Dropout(p=0.1, inplace=False)
        (dropout2): Dropout(p=0.1, inplace=False)
        (norm1): AdaptiveLayerNorm(
          (project_layer): Linear(in_features=1024, out_features=2048, bias=True)
          (norm): LayerNorm((1024,), eps=1e-05, elementwise_affine=True)
        )
        (norm2): AdaptiveLayerNorm(
          (project_layer): Linear(in_features=1024, out_features=2048, bias=True)
          (norm): LayerNorm((1024,), eps=1e-05, elementwise_affine=True)
        )
      )
      (9): TransformerEncoderLayer(
        (self_attn): MultiheadAttention(
          (out_proj): NonDynamicallyQuantizableLinear(in_features=1024, out_features=1024, bias=True)
        )
        (linear1): Linear(in_features=1024, out_features=4096, bias=True)
        (dropout): Dropout(p=0.1, inplace=False)
        (linear2): Linear(in_features=4096, out_features=1024, bias=True)
        (dropout1): Dropout(p=0.1, inplace=False)
        (dropout2): Dropout(p=0.1, inplace=False)
        (norm1): AdaptiveLayerNorm(
          (project_layer): Linear(in_features=1024, out_features=2048, bias=True)
          (norm): LayerNorm((1024,), eps=1e-05, elementwise_affine=True)
        )
        (norm2): AdaptiveLayerNorm(
          (project_layer): Linear(in_features=1024, out_features=2048, bias=True)
          (norm): LayerNorm((1024,), eps=1e-05, elementwise_affine=True)
        )
      )
      (10): TransformerEncoderLayer(
        (self_attn): MultiheadAttention(
          (out_proj): NonDynamicallyQuantizableLinear(in_features=1024, out_features=1024, bias=True)
        )
        (linear1): Linear(in_features=1024, out_features=4096, bias=True)
        (dropout): Dropout(p=0.1, inplace=False)
        (linear2): Linear(in_features=4096, out_features=1024, bias=True)
        (dropout1): Dropout(p=0.1, inplace=False)
        (dropout2): Dropout(p=0.1, inplace=False)
        (norm1): AdaptiveLayerNorm(
          (project_layer): Linear(in_features=1024, out_features=2048, bias=True)
          (norm): LayerNorm((1024,), eps=1e-05, elementwise_affine=True)
        )
        (norm2): AdaptiveLayerNorm(
          (project_layer): Linear(in_features=1024, out_features=2048, bias=True)
          (norm): LayerNorm((1024,), eps=1e-05, elementwise_affine=True)
        )
      )
      (11): TransformerEncoderLayer(
        (self_attn): MultiheadAttention(
          (out_proj): NonDynamicallyQuantizableLinear(in_features=1024, out_features=1024, bias=True)
        )
        (linear1): Linear(in_features=1024, out_features=4096, bias=True)
        (dropout): Dropout(p=0.1, inplace=False)
        (linear2): Linear(in_features=4096, out_features=1024, bias=True)
        (dropout1): Dropout(p=0.1, inplace=False)
        (dropout2): Dropout(p=0.1, inplace=False)
        (norm1): AdaptiveLayerNorm(
          (project_layer): Linear(in_features=1024, out_features=2048, bias=True)
          (norm): LayerNorm((1024,), eps=1e-05, elementwise_affine=True)
        )
        (norm2): AdaptiveLayerNorm(
          (project_layer): Linear(in_features=1024, out_features=2048, bias=True)
          (norm): LayerNorm((1024,), eps=1e-05, elementwise_affine=True)
        )
      )
    )
    (norm): AdaptiveLayerNorm(
      (project_layer): Linear(in_features=1024, out_features=2048, bias=True)
      (norm): LayerNorm((1024,), eps=1e-05, elementwise_affine=True)
    )
  )
  (nar_predict_layers): ModuleList(
    (0): Linear(in_features=1024, out_features=1024, bias=False)
    (1): Linear(in_features=1024, out_features=1024, bias=False)
    (2): Linear(in_features=1024, out_features=1024, bias=False)
    (3): Linear(in_features=1024, out_features=1024, bias=False)
    (4): Linear(in_features=1024, out_features=1024, bias=False)
    (5): Linear(in_features=1024, out_features=1024, bias=False)
    (6): Linear(in_features=1024, out_features=1024, bias=False)
  )
  (nar_stage_embeddings): ModuleList(
    (0): TokenEmbedding(
      (dropout): Dropout(p=0.0, inplace=False)
      (word_embeddings): Embedding(1, 1024)
    )
    (1): TokenEmbedding(
      (dropout): Dropout(p=0.0, inplace=False)
      (word_embeddings): Embedding(1, 1024)
    )
    (2): TokenEmbedding(
      (dropout): Dropout(p=0.0, inplace=False)
      (word_embeddings): Embedding(1, 1024)
    )
    (3): TokenEmbedding(
      (dropout): Dropout(p=0.0, inplace=False)
      (word_embeddings): Embedding(1, 1024)
    )
    (4): TokenEmbedding(
      (dropout): Dropout(p=0.0, inplace=False)
      (word_embeddings): Embedding(1, 1024)
    )
    (5): TokenEmbedding(
      (dropout): Dropout(p=0.0, inplace=False)
      (word_embeddings): Embedding(1, 1024)
    )
    (6): TokenEmbedding(
      (dropout): Dropout(p=0.0, inplace=False)
      (word_embeddings): Embedding(1, 1024)
    )
  )
  (nar_accuracy_metric): MulticlassAccuracy()
  (lang_embedding): TokenEmbedding(
    (dropout): Dropout(p=0.0, inplace=False)
    (word_embeddings): Embedding(3, 1024)
  )
)2023-08-21 15:16:06,119 INFO [trainer.py:913] Number of model parameters: 367389700
2023-08-21 15:16:07,902 INFO [datamodule.py:417] About to get train cuts
2023-08-21 15:16:33,352 INFO [datamodule.py:424] About to get dev cuts
2023-08-21 15:16:33,794 INFO [datamodule.py:276] Disable SpecAugment
2023-08-21 15:16:33,795 INFO [datamodule.py:278] About to create train dataset
2023-08-21 15:16:33,796 INFO [datamodule.py:307] Using DynamicBucketingSampler
…
